models/best_steamnet_model.pt (torch, 113343 bytes, 97 tensors)

node_input_proj.weight f4 [32, 12]
0	0x3e5dd02c	0.21661443
1	0x3dbed9a8	0.093188584
2	0x3deba963	0.11506917
3	0xbdd85554	-0.1056315
4	0xbe80a330	-0.25124502
5	0xbd6fae15	-0.058515627
6	0x3c4c5687	0.012471802
7	0xbe95ce0c	-0.29258764
8	0x3e6825b3	0.22670631
9	0xbd851b4e	-0.064993486
10	0x3e097927	0.13425122
11	0x3da2c3bd	0.0794749
12	0x3d809ad5	0.06279532
13	0x3e80e5e6	0.251754
14	0xbd7b3363	-0.061328303
15	0xbcf578c1	-0.029964807
16	0xbdcf5382	-0.1012335
17	0xbe3f75bc	-0.18697256
18	0xbb450996	-0.0030065528
19	0x3e5ecfad	0.2175891
20	0xbe799122	-0.2437177
21	0x3ded5ae6	0.11589603
22	0x3e877e80	0.264637
23	0xbd37ee82	-0.044905193
24	0x3d67e75c	0.056617126
25	0xbe3a7a03	-0.18210606
26	0xbe74e583	-0.23915677
27	0x3e21a317	0.1578487
28	0xbd3840b1	-0.04498357
29	0x3e70a887	0.23501788
30	0x3d8c96da	0.0686471
31	0xbca3afd9	-0.019981312
32	0xbdcf395e	-0.10118364
33	0x3cf5fef3	0.030028796
34	0xbd9c6f3f	-0.07638406
35	0xbc39370b	-0.011304627
36	0xbe1d0b25	-0.15336283
37	0xbd0b170e	-0.033957534
38	0xbe4ebaef	-0.20188497
39	0xbe56a650	-0.2096188
40	0x3db52545	0.08844999
41	0xbe78be6b	-0.24291389
42	0xbe3e7fba	-0.18603411
43	0x3d40ff8b	0.047118705
44	0x3dc594fa	0.09647556
45	0xbdde8a49	-0.108662196
46	0xbddef407	-0.10886388
47	0x3c459a3d	0.012060699
48	0x3de91bac	0.11382231
49	0x3e662c38	0.22477806
50	0x3d447bfe	0.04796981
51	0x3e8b9e87	0.27269384
52	0x3b751a43	0.0037399686
53	0x3e8fc481	0.28079608
54	0x3e56499e	0.2092652
55	0xbcb9790e	-0.022640731
56	0x3e68bfeb	0.22729461
57	0x3e39a7e5	0.18130453
58	0xbe2b843d	-0.16749664
59	0x3e84cba0	0.25936604
60	0x3dadedde	0.08492635
61	0x3e40cbf4	0.18827802
62	0x3e4bf81b	0.19918863
63	0x3e29154b	0.16512029
64	0xbdcd3e60	-0.10021663
65	0x3e074f7b	0.13213913
66	0x3e454d07	0.19267665
67	0xbe6cc0ab	-0.23120372
68	0xbe8313b6	-0.25600976
69	0xbe41c2eb	-0.18922012
70	0xbd06d8de	-0.032921664
71	0xbc7e3870	-0.015516385
72	0xbb36f7bd	-0.002791866
73	0xbdbfd2e4	-0.09366396
74	0x3b1ed90c	0.0024238257
75	0xbe033d26	-0.12816295
76	0x3e5717ee	0.21005222
77	0x3e0c8ae3	0.13724856
78	0xbdd53d29	-0.10412056
79	0x3e83f7ab	0.25774893
80	0xbd7ca5c3	-0.06168152
81	0x3e0c2895	0.13687356
82	0x3e533e60	0.20629263
83	0xbd4d4b7d	-0.05012082
84	0xbe85cfe9	-0.26135185
85	0x3e3c3da1	0.18382885
86	0xbd0de5fd	-0.034643162
87	0x3e818b02	0.25301367
88	0xbda5da57	-0.08098286
89	0xbe58bd0c	-0.21165866
90	0x3ca52116	0.020157378
91	0x3e8e9332	0.27846676
92	0xbe696a91	-0.22794558
93	0x3e65be26	0.22435817
94	0xbdee57b4	-0.11637822
95	0xbdd6a9c9	-0.10481603
96	0xbe78c467	-0.24293672
97	0x3dac96a5	0.08427171
98	0xbcc4330b	-0.02395012
99	0xbe85ef26	-0.26159018
100	0x3e7f8e94	0.24956733
101	0xbe2ac1b4	-0.16675454
102	0xbe554e82	-0.2083073
103	0x3c7e18e4	0.015508864
104	0x3e900fe9	0.28137138
105	0xbd1b7063	-0.037948977
106	0xbe86b52a	-0.26310092
107	0x3e2d6f84	0.16937071
108	0xbd1717f3	-0.036888074
109	0x3e08a3db	0.13343756
110	0x3e2f7f63	0.17138438
111	0x3e8a6256	0.2702815
112	0x3df9a124	0.12188938
113	0x3e179c1e	0.14805648
114	0xbd530fea	-0.05152885
115	0x3d68548e	0.056721263
116	0x3dbb60ff	0.0914936
117	0xbde7080e	-0.11280833
118	0x3e87c8a0	0.26520252
119	0x3e0ff45c	0.1405806
120	0xbe121400	-0.14265442
121	0x3e342e56	0.17595801
122	0x3e5d5f46	0.21618375
123	0xbd40df14	-0.047087744
124	0xbe966b9a	-0.29378968
125	0xbe1ef180	-0.15521812
126	0x3be0ff5d	0.006866379
127	0x3e58bee2	0.21166566
128	0x3e8de7b4	0.27715838
129	0xbe7a4f60	-0.24444342
130	0xbe8015c5	-0.2501661
131	0xbded8879	-0.11598296
132	0xbe712ff6	-0.23553452
133	0xbe4b560d	-0.19857045
134	0x3cb5cf45	0.02219356
135	0x3e831fb5	0.25610128
136	0x3e1222b5	0.14271052
137	0xbe1a1d9d	-0.15050359
138	0xbda1247a	-0.078682855
139	0x3cceb613	0.025233304
140	0xbd4b4d3f	-0.049634214
141	0xbd128892	-0.035774775
142	0xbd4bd4bc	-0.049763426
143	0x3e5457ec	0.20736665
144	0x3d9a740a	0.07541664
145	0x3e7a3426	0.24433956
146	0x3e49e694	0.19716865
147	0x3db4e94b	0.088335596
148	0x3c37fad7	0.0112292385
149	0x3e906dbf	0.2820873
150	0x3d239f43	0.039946806
151	0x3d26588e	0.040611796
152	0xbe99f091	-0.3006635
153	0x3daef611	0.08543027
154	0xbd2ecec7	-0.042677667
155	0xbe917f5e	-0.28417486
156	0x3d12938b	0.03578524
157	0x3df24b0c	0.1183072
158	0x3e42c3aa	0.19019952
159	0xbd122708	-0.035681754
160	0xbe190ae1	-0.14945556
161	0x3e71bf3b	0.23608105
162	0x3e3c779d	0.18405004
163	0x3d686766	0.056739233
164	0xbe525e38	-0.20543754
165	0xbd47b55a	-0.048756935
166	0xbcd8bb47	-0.026456488
167	0x3e0a38fb	0.13498299
168	0xbe27e3d6	-0.16395506
169	0x3e488660	0.1958251
170	0x3db87c0b	0.09008034
171	0x3d201b98	0.039088815
172	0xbdc2ed82	-0.09517957
173	0xbe591c76	-0.21202263
174	0x3e14b07c	0.14520448
175	0x3e837d1e	0.25681394
176	0xbca0e3eb	-0.01963993
177	0x3e10da90	0.14145875
178	0xbc1354f1	-0.00899242
179	0xbd5a732b	-0.05333249
180	0xbd274a76	-0.040842496
181	0x3e39ea49	0.18155779
182	0x3e884001	0.2661133
183	0x3e281edc	0.16418022
184	0x3e8cf229	0.27528504
185	0xbe827461	-0.25479415
186	0x3e7dc454	0.24781924
187	0x3e8ac64a	0.27104408
188	0xbd0e6424	-0.03476347
189	0xbcd7d3ef	-0.026346175
190	0xbdb16b9f	-0.08663105
191	0xbd5b536c	-0.053546354
192	0xbe270663	-0.1631103
193	0xbd3cf9ff	-0.046136852
194	0x3c32cae5	0.010912632
195	0x3e748c32	0.23881605
196	0xbe3ab3a6	-0.18232593
197	0x3e636fee	0.22210667
198	0xbd098bf3	-0.03358073
199	0x3e806d1c	0.25083244
200	0x3e00c438	0.12574852
201	0xbc4b6e82	-0.012416484
202	0x3da691d7	0.081332855
203	0xbd885c44	-0.06658223
204	0xbd9ebadf	-0.077504866
205	0x3c8b7e50	0.017028004
206	0x3c420dfc	0.011844154
207	0x3e3ef0ba	0.18646517
208	0x3cf39ef0	0.029738873
209	0xbdc98d26	-0.09841375
210	0x3dd87d95	0.10570828
211	0xbdac1aa5	-0.084035195
212	0x3e70002e	0.23437569
213	0x3da23468	0.07920152
214	0x3e4cb69d	0.19991536
215	0x3e7e02c5	0.24805744
216	0xbc868b65	-0.01642389
217	0x3daf3842	0.08555652
218	0xbe425321	-0.18977024
219	0x3e891a37	0.26777813
220	0x3e289261	0.16462089
221	0xbe6022d8	-0.21888292
222	0xbdccc419	-0.0999834
223	0x3de58ca9	0.112084694
224	0xbd398ada	-0.045298435
225	0x3e7e405a	0.24829236
226	0x3e59ff23	0.21288733
227	0x3ca37f9e	0.019958314
228	0xbcb1832b	-0.021668991
229	0xbe3c0777	-0.18362223
230	0xbe51e5c6	-0.20497808
231	0x3e49491e	0.19656798
232	0x3c56f19a	0.013119126
233	0xbe87b80e	-0.2650761
234	0x3b2225fe	0.0024741883
235	0xbc9b08d7	-0.018925114
236	0x3df1a42e	0.11798893
237	0xbda91082	-0.08255102
238	0xbd9797eb	-0.07402023
239	0xbcc19555	-0.023630777
240	0xbe156cd6	-0.14592299
241	0xbe15053b	-0.14552777
242	0x3e1709e0	0.14749861
243	0x3d9be78b	0.07612523
244	0xbab0d173	-0.0013490155
245	0x3ce55410	0.027994186
246	0x3e8ecd62	0.2789107
247	0x3e01f1ef	0.12689947
248	0x3d19965f	0.03749692
249	0xbe445c9d	-0.19175954
250	0xbd984a71	-0.074360736
251	0xbe80f206	-0.2518465
252	0x3e10b927	0.1413313
253	0x3df37b27	0.11888724
254	0x3e38b13e	0.18036363
255	0xbb4beadf	-0.0031115336

node_input_proj.bias f4 [32]
0	0x3e80e8c7	0.25177595
1	0x3e15c8b0	0.14627337
2	0xbd54d7c6	-0.05196359
3	0xbe717d09	-0.23582853
4	0xbe7c0535	-0.24611361
5	0x3e05c044	0.13061625
6	0xbcdbc555	-0.026827494
7	0x3e4caf7a	0.19988814
8	0x3c24ce1d	0.010058907
9	0xbde479ac	-0.111560196
10	0xbe7a1e74	-0.2442568
11	0xbde3aa1c	-0.1111643
12	0xbe71a825	-0.23599298
13	0xbdf04e35	-0.11733667
14	0x3e778efa	0.24175635
15	0xbe933932	-0.28754574
16	0x3e5555fc	0.20833582
17	0x3e72709a	0.23675767
18	0x3e80160b	0.25016817
19	0x3c63a634	0.013894606
20	0x3c9fc61e	0.01950365
21	0xbe242980	-0.16031456
22	0xbe186adc	-0.14884514
23	0xbe04b621	-0.12960102
24	0x3d051a6e	0.03249591
25	0x3d6ca754	0.057776764
26	0xbe1464a1	-0.14491512
27	0xbe8dd704	-0.27703106
28	0xbd4fa0d6	-0.050690494
29	0xbd793c78	-0.060848683
30	0xbe5f9eac	-0.21837872
31	0x3e7bd1d2	0.24591759

gcn_layers.0.bias f4 [32]
0	0x00000000	0.0
1	0x00000000	0.0
2	0x00000000	0.0
3	0x00000000	0.0
4	0x3c3420a1	0.010994107
5	0x00000000	0.0
6	0xbbdeddac	-0.0068013277
7	0xbc483877	-0.0122204935
8	0xbb5fb842	-0.0034136926
9	0x3b832f28	0.004003424
10	0xbc726638	-0.014794879
11	0x3cbfc49c	0.02340918
12	0xba68a482	-0.0008874611
13	0xbc1897a9	-0.009313502
14	0xbbc92932	-0.006138944
15	0x00000000	0.0
16	0xbb98b8f9	-0.0046607223
17	0x3a134909	0.0005618488
18	0xbcbfe551	-0.023424776
19	0x3c258eb1	0.010104821
20	0x3aa8d740	0.0012881532
21	0x3d05bd49	0.03265122
22	0x3c9b4c12	0.018957172
23	0x3c13d93e	0.009023963
24	0xbd092e70	-0.033491552
25	0xbb9182a4	-0.0044406224
26	0x3bebb6fa	0.0071934434
27	0x3cb1e8ed	0.021717513
28	0xbbb4db41	-0.005519301
29	0x3c86df3f	0.016463874
30	0xb8bbd90a	-8.9572815e-05
31	0x3cf1f348	0.02953495

gcn_layers.0.lin.weight f4 [32, 32]
0	0xbe96a76c	-0.29424608
1	0x3c8cceb1	0.017188402
2	0xbc86ad69	-0.01644011
3	0x3e752226	0.23938808
4	0x3d72db0a	0.059290923
5	0xbe92d1ba	-0.28675634
6	0x3e81a36a	0.25319988
7	0xbd93b6b0	-0.07212579
8	0x3e45f192	0.19330433
9	0xbd912fe8	-0.070892155
10	0xbce59980	-0.028027296
11	0xbd1673a0	-0.036731362
12	0xbe3b769e	-0.18306968
13	0xbe05a606	-0.13051614
14	0x3cec717f	0.028862713
15	0xbd6a9e24	-0.05727972
16	0x3e88f744	0.2675115
17	0x3ddc5e73	0.10760202
18	0x3e072175	0.13196357
19	0xbe1ce5f3	-0.15322094
20	0xbe195c80	-0.14976692
21	0xbe9c22f0	-0.30495405
22	0x3d4e0364	0.050296202
23	0x3e715c97	0.23570476
24	0x3e8eb64b	0.27873453
25	0xbdd626f8	-0.104566514
26	0x3dd308a1	0.1030438
27	0x3dfa2117	0.12213343
28	0xbe56efd6	-0.20989928
29	0x3e2f5693	0.17122869
30	0x3e10b8b5	0.1413296
31	0xbe6e4f54	-0.23272449
32	0xbe549a90	-0.20762086
33	0x3d58e509	0.0529528
34	0x3d98bdb4	0.07458058
35	0x3e8167e0	0.25274563
36	0x3db28785	0.087172545
37	0x3dda9770	0.10673416
38	0xbe88b932	-0.26703793
39	0xbda7993a	-0.081835225
40	0xbe866a06	-0.26252764
41	0x3e2df445	0.16987713
42	0x3e7f906e	0.2495744
43	0x3e57d91a	0.21078911
44	0xbe529fb6	-0.20568737
45	0xbdea012a	-0.11426003
46	0xbe80265a	-0.2502926
47	0xbe549d8f	-0.20763229
48	0xbe1a4657	-0.15065895
49	0x3e753551	0.2394612
50	0xbdf7d711	-0.121015675
51	0xbd78bd52	-0.060727425
52	0x3df766d5	0.120801605
53	0x3e837e65	0.2568237
54	0x3e1b8650	0.15187955
55	0xbe7b1691	-0.24520327
56	0xbe278bfe	-0.16361997
57	0xbe30ab27	-0.1725279
58	0x3defe067	0.11712723
59	0xbe78640a	-0.24256912
60	0xbe1b10c9	-0.15143122
61	0xbe3ecf3b	-0.1863374
62	0xbe1a584f	-0.1507275
63	0x3d390410	0.04516989
64	0xbdaee217	-0.08539217
65	0xbe253867	-0.16134797
66	0x3e939b56	0.2882945
67	0xbdf6106c	-0.12014851
68	0xbe787cd2	-0.24266365
69	0xbdd6aa6b	-0.104817234
70	0x3d02f24d	0.031969357
71	0xbe9c6ad8	-0.30550265
72	0x3e9886f5	0.29790464
73	0x3c796530	0.015221879
74	0x3d96ad21	0.073572405
75	0x3e44f020	0.19232225
76	0xbd95fa34	-0.07323113
77	0x3d3319db	0.04372583
78	0x3e01b91f	0.12668274
79	0xbc7ebfd4	-0.015548665
80	0x3e270371	0.16309907
81	0xbdd04371	-0.101691134
82	0x3e390659	0.18068828
83	0x3e3d4b63	0.18485789
84	0xbe4ff469	-0.20308079
85	0xbd1072f4	-0.035265878
86	0xbd345bc6	-0.044032834
87	0xbe8378b8	-0.2567804
88	0xbe97d24f	-0.2965264
89	0xbe9c5739	-0.30535296
90	0x3e8126a9	0.25224808
91	0x3c8b8e1e	0.01703554
92	0xbe8d4611	-0.2759252
93	0x3e9c8b7c	0.30575168
94	0xbdd7049c	-0.10498926
95	0xbe2a9a6f	-0.16660474
96	0xbe55a65f	-0.20864247
97	0xbddc3733	-0.10752716
98	0xbe155645	-0.1458369
99	0xbde61294	-0.11234012
100	0xbe1162f0	-0.14197898
101	0xbe6885e3	-0.22707324
102	0xbe84e33e	-0.25954622
103	0x3e63c0c7	0.22241507
104	0x3ddbbf06	0.10729794
105	0x3bafd422	0.0053658644
106	0x3e8bedae	0.27329773
107	0xbda18de0	-0.07888389
108	0xbd70bda0	-0.05877459
109	0xbe83b56a	-0.25724345
110	0xbddda862	-0.10823132
111	0x3e1ce371	0.15321137
112	0xbde87d88	-0.11352068
113	0xbe3cb26d	-0.18427439
114	0xbd724ae6	-0.05915346
115	0x3da923ba	0.082587674
116	0x3e324fc1	0.17413236
117	0x3dc6e40d	0.09711466
118	0x3d89c922	0.06727816
119	0xbe6e9e98	-0.23302686
120	0x3e2f954e	0.17146799
121	0x3b8d28b6	0.0043078316
122	0xbdc1634f	-0.0944277
123	0xbe13be5d	-0.14428087
124	0x3e1debc5	0.1542197
125	0x3d2f6bb9	0.04282734
126	0xbe3874fa	-0.18013373
127	0x3e161743	0.14657311
128	0x3dae7081	0.08517552
129	0x3e63e98a	0.22257057
130	0xbe7674ba	-0.24067965
131	0xbe28c682	-0.16481975
132	0x3dd86de8	0.10567838
133	0xbd9ba001	-0.07598878
134	0xbe476cd8	-0.19475114
135	0x3ddd3a62	0.10802151
136	0x3df2f9c3	0.118640445
137	0x3df971c2	0.12179901
138	0x3e1bc5b4	0.15212137
139	0x3ce0d4ee	0.027445283
140	0xbe80a412	-0.25125176
141	0x3e850a03	0.259842
142	0xbe8674d9	-0.26261023
143	0xbe9364e4	-0.2878791
144	0x3e931b3b	0.28731713
145	0x3e8d31aa	0.27576953
146	0xbddaa605	-0.10676197
147	0x3e8032fb	0.25038895
148	0xbe388905	-0.18021019
149	0x3e98a12f	0.29810473
150	0x3d881b25	0.066458024
151	0xbe46f09c	-0.19427723
152	0xbb27387b	-0.0025515843
153	0x3e2a0e5a	0.16607037
154	0x3e2ccdb6	0.16875347
155	0xbe316181	-0.17322351
156	0xbe2473aa	-0.16059747
157	0xbe8acbbd	-0.27108565
158	0x3e4f808b	0.20263879
159	0xbe0dec98	-0.13859785
160	0xbe96a8a2	-0.29425532
161	0xbe187317	-0.14887653
162	0xbe71d53b	-0.23616497
163	0x3d6c7dc8	0.05773714
164	0xbe827443	-0.25479326
165	0xbe086c71	-0.13322617
166	0xbe737cfb	-0.23778145
167	0xbe4dd014	-0.20098907
168	0x3e31ef56	0.17376456
169	0xbcbe5469	-0.02323361
170	0xbe94e843	-0.29083452
171	0x3e036e40	0.12835026
172	0x3e166c3b	0.14689724
173	0x3c04e630	0.008111522
174	0xbe53b42d	-0.206742
175	0xbe011614	-0.12606078
176	0xbccedf0b	-0.02525284
177	0x3d88fd5d	0.0668895
178	0xbbabb467	-0.0052400115
179	0xbe3e024e	-0.18555567
180	0x3e6f44ff	0.23366164
181	0xbe79eec0	-0.24407482
182	0x3e291cab	0.16514842
183	0xbe8c2203	-0.273697
184	0xbe7f0c0d	-0.24906941
185	0xbe94526c	-0.28969133
186	0x3d87da5b	0.06633445
187	0xbd21633d	-0.03940128
188	0xbe565cb9	-0.20933808
189	0xbe669dba	-0.22521105
190	0x3d26d2e5	0.04072847
191	0xbdc016d4	-0.09379354
192	0xbe9c573b	-0.30535302
193	0xbe5ded5f	-0.21672581
194	0x3c9df84f	0.019283442
195	0xbe5c4e70	-0.21514297
196	0xbe8c9b1b	-0.27462086
197	0xbe5e3172	-0.2169855
198	0xbe8b2647	-0.2717764
199	0xbe8652d5	-0.2623507
200	0xbe4db013	-0.20086698
201	0xbe24bd7b	-0.16087906
202	0xbd226ae1	-0.03965271
203	0x3e962575	0.29325452
204	0x3d9d1616	0.07670228
205	0x3e630240	0.22168827
206	0xbe2ccec8	-0.16875756
207	0x3ddfe57f	0.10932445
208	0x3e1288a5	0.14309938
209	0xbd830912	-0.063982144
210	0x3d3db39c	0.046313867
211	0xbd605116	-0.05476483
212	0x3b5f5f4f	0.0034083908
213	0xbe9468b1	-0.28986123
214	0xbddaf39b	-0.10690995
215	0x3de19544	0.11014798
216	0x3e06d5c0	0.13167477
217	0xbd93230e	-0.071844205
218	0xbe8184ca	-0.25296623
219	0xbcfa9b68	-0.030591682
220	0xbdb62b5e	-0.088949904
221	0x3da21286	0.07913689
222	0xbe2c06ad	-0.16799422
223	0x3e10291d	0.14078183
224	0xbca241ea	-0.01980682
225	0xbde57018	-0.11203021
226	0x3e8ac1a8	0.27100873
227	0xbe7dfe25	-0.2480398
228	0x3e888497	0.26663658
229	0xbe0c6b0e	-0.13712713
230	0x3d86443f	0.06555986
231	0x3e157dd6	0.14598784
232	0x3dff3fd6	0.124633476
233	0x3e4a739f	0.19770668
234	0xbe93de1b	-0.2888039
235	0xbe218b77	-0.15775858
236	0x3e64cfcd	0.22344895
237	0x3e3ef899	0.1864952
238	0xbe6ac47d	-0.22926517
239	0x3e90e45b	0.2829922
240	0xbdd1afcf	-0.10238611
241	0x3e9ce6fc	0.30644977
242	0x3e0ebe5e	0.13939807
243	0x3e83f844	0.2577535
244	0xbe08cd0b	-0.13359468
245	0x3e6fed07	0.23430263
246	0x3e478237	0.19483267
247	0xbe7a7240	-0.24457645
248	0x3e913034	0.2835709
249	0x3e22d2b1	0.15900685
250	0x3e0a90cb	0.13531797
251	0x3de36c69	0.11104662
252	0xbdf9f939	-0.122057386
253	0xbd9cfe49	-0.076656885
254	0x3e7d9249	0.24762835
255	0x3e82b62a	0.25529605

gcn_layers.1.bias f4 [32]
0	0x3a68aa61	0.0008875486
1	0x3b70433f	0.0036661176
2	0xbc220a16	-0.0098901
3	0x3b3bd123	0.002865859
4	0x3c16253b	0.00916415
5	0xbc809a7a	-0.01569866
6	0xbcf70374	-0.030153014
7	0x3cca626f	0.02470514
8	0x3c876e4d	0.016532088
9	0x3cb6872c	0.022281252
10	0xbb62f4e6	-0.0034630834
11	0xbbde1dd8	-0.00677846
12	0x3c9af36d	0.018914903
13	0x3c2770d6	0.010219773
14	0xba2b86a1	-0.00065431936
15	0x3c61cb29	0.013781347
16	0xbc604807	-0.013689048
17	0x38a817a0	8.015265e-05
18	0xbb2b8c03	-0.0026175983
19	0xbca38cfb	-0.019964686
20	0x3bc693b1	0.0060600867
21	0xbbcae2c5	-0.006191584
22	0xbc0c3fc7	-0.008560128
23	0xbbd3faa8	-0.0064690895
24	0x3c8d339d	0.017236525
25	0xbca0e056	-0.019638222
26	0xbb240f02	-0.002503336
27	0xbb971664	-0.0046108235
28	0x3ba0d8e0	0.004908666
29	0xbb8555e7	-0.0040690782
30	0xbbb8f3a4	-0.0056442786
31	0xba5dda37	-0.00084629975

gcn_layers.1.lin.weight f4 [32, 32]
0	0xbe69c95c	-0.22830719
1	0xbdfa39da	-0.122180656
2	0x3dae5302	0.08511926
3	0x3e43a4a9	0.19105782
4	0xbe3bfc6e	-0.18358013
5	0x3cca8d8e	0.024725702
6	0xbdf0137d	-0.11722467
7	0xbd0b7dbb	-0.034055453
8	0x3e998b56	0.29989117
9	0x3d275052	0.040848084
10	0xbe650dd9	-0.22368564
11	0x3dda2f95	0.10653607
12	0x3e8cec46	0.27524012
13	0xbd407267	-0.046984103
14	0xbe31bf16	-0.1735805
15	0xbe9319b5	-0.2873055
16	0xbe3600f2	-0.17773798
17	0xbe764ebd	-0.24053474
18	0x3deaf99f	0.11473393
19	0xbdc37ed3	-0.09545674
20	0xbe8ab520	-0.27091312
21	0xbdcf0b82	-0.10109617
22	0xbe8020f1	-0.25025132
23	0xbdb87a10	-0.090076566
24	0xbe9776f9	-0.29582956
25	0x3e42677a	0.18984786
26	0xbda7fc95	-0.08202473
27	0x3e82f13b	0.2557467
28	0x3d10770c	0.035269782
29	0x3df553d5	0.1197888
30	0xbe1b4970	-0.15164733
31	0x3c9078a6	0.017635655
32	0x3d9b523e	0.07584046
33	0xbe2f81ee	-0.17139408
34	0xbd225ed9	-0.039641235
35	0xbe803e71	-0.2504764
36	0xbe409c74	-0.18809682
37	0x3d0b0cc0	0.033947706
38	0xbd007fd0	-0.03137189
39	0xbdcce2e3	-0.10004213
40	0x3e7c89c8	0.24661934
41	0xbe111d6d	-0.14171381
42	0xbdce2486	-0.1006556
43	0x3d27f9af	0.0410096
44	0x3dbbf4d0	0.09177554
45	0xbe6e0ecc	-0.23247832
46	0xbe7ac152	-0.24487808
47	0x3d34e180	0.044160366
48	0xbe0cc589	-0.13747229
49	0x3e1dedb2	0.15422705
50	0xbe77fdea	-0.24217954
51	0xbd7e7f9b	-0.062133413
52	0x3e366eb2	0.17815664
53	0x3e198c73	0.14994983
54	0xbe7bca40	-0.24588871
55	0x3e3e0bf5	0.18559249
56	0xbe78febf	-0.24315928
57	0x3b601de0	0.0034197494
58	0xbe827033	-0.25476226
59	0xbd82d78b	-0.06388768
60	0x3e232d9c	0.15935367
61	0xbd4a3c59	-0.04937396
62	0xbe0a69e4	-0.13516957
63	0xbd994611	-0.07484067
64	0x3e94ddcb	0.29075465
65	0xbe97aa7a	-0.2962225
66	0xbe36ee46	-0.17864332
67	0x3e208873	0.15677051
68	0xbda872c0	-0.08225012
69	0xbe1ad5cf	-0.15120624
70	0x3e2d8fde	0.16949412
71	0x3e80658d	0.25077477
72	0x3e8f28d6	0.27960843
73	0x3b62d510	0.0034611858
74	0xbdce73c3	-0.100806735
75	0x3e3aade9	0.18230404
76	0x3cc4c9a3	0.02402193
77	0x3e806345	0.25075737
78	0x3e86addb	0.26304516
79	0x3e1bc860	0.15213156
80	0xbe240d8f	-0.16020797
81	0x3e832067	0.2561066
82	0x3e8e4e65	0.27794185
83	0xbe6cd46a	-0.23127905
84	0x3d992198	0.074771106
85	0x3df14280	0.11780262
86	0xbdd8254a	-0.10553987
87	0x3e83f855	0.257754
88	0xbdf598f6	-0.119920656
89	0x3e111de3	0.14171557
90	0x3cf4a9fd	0.029866213
91	0xbd94b0ab	-0.07260259
92	0x3e2d8cac	0.16948193
93	0xbe9b2190	-0.30299044
94	0xbe523c57	-0.2053083
95	0xbe04ec28	-0.12980711
96	0xbd0eca32	-0.034860797
97	0x3dd29af9	0.10283465
98	0x3d66a637	0.05631086
99	0x3e089c8b	0.13340966
100	0xbe63c974	-0.22244817
101	0x3cbcebcd	0.023061657
102	0xbd138872	-0.036018796
103	0xbdb3c90f	-0.08778583
104	0xbe078729	-0.13235153
105	0x3e00fb31	0.12595822
106	0x3d527c8b	0.051388305
107	0x3e52ccd6	0.20585951
108	0x3c62dc97	0.013846538
109	0xbe90ea56	-0.28303784
110	0x3e08089d	0.13284536
111	0x3e16d3b8	0.14729202
112	0xbe797d5c	-0.24364227
113	0x3e81da7d	0.25362006
114	0x3e9073f1	0.28213456
115	0x3e7d457b	0.24733536
116	0x3d370322	0.044680722
117	0x3e5bb530	0.21455836
118	0xbdc4879e	-0.095961794
119	0x3e496c6c	0.19670266
120	0xbe0eeb74	-0.13957006
121	0x3e99378c	0.2992519
122	0xbd53cc13	-0.051708292
123	0xbdc0977f	-0.094038956
124	0xbdf6e67a	-0.12055679
125	0x3c5c732b	0.013455193
126	0xbe930a30	-0.2871871
127	0xbe7abf84	-0.2448712
128	0x3d95c495	0.07312886
129	0xbe6fcdc4	-0.23418337
130	0xbdcbe5ff	-0.09955978
131	0xbe2654a6	-0.16243228
132	0x3e67c3e5	0.22633322
133	0xbc08ed1e	-0.008357314
134	0xbe41f717	-0.18941914
135	0xbb17ac8b	-0.0023143615
136	0x3e7c7b38	0.24656379
137	0xbd8f51e7	-0.069980435
138	0xbd6d5092	-0.057938166
139	0x3dfc976a	0.123335674
140	0x3df94909	0.121721335
141	0x3e93898a	0.2881587
142	0x3e51c1b1	0.20484044
143	0x3d8d2c9d	0.06893275
144	0xbde1f641	-0.11033297
145	0xbe4e0899	-0.20120467
146	0x3e50eb44	0.20402247
147	0xbe044a1e	-0.12918898
148	0x3d45683a	0.0481951
149	0xbe623b8c	-0.22093028
150	0x3dc62a2a	0.09676011
151	0x3e7f415f	0.24927281
152	0x3d85357a	0.065043405
153	0xbe4bad2e	-0.19890282
154	0xbe89023b	-0.26759514
155	0x3dcecfcb	0.10098227
156	0x3e118109	0.1420938
157	0x3e60456d	0.21901484
158	0x3e73521e	0.23761794
159	0xbcf33a7d	-0.029690975
160	0xbe3eee45	-0.1864558
161	0xbd9a65d4	-0.075389534
162	0xbe46bfb9	-0.19409074
163	0x3e1df92f	0.15427087
164	0xbe883d1e	-0.2660913
165	0x3cee9183	0.02912212
166	0x3d330a86	0.043711208
167	0x3de84ddd	0.11342976
168	0xbdbb9118	-0.09158534
169	0x3e6ee0e0	0.2332797
170	0x3d8d6f17	0.06905954
171	0x3e8423fc	0.25808704
172	0x3dc14c4f	0.09438383
173	0x3d7b288b	0.06131796
174	0xbe421a24	-0.18955284
175	0x3d05651a	0.03256712
176	0xbce687c8	-0.028140917
177	0x3dc883c8	0.0979076
178	0x3e41ea4d	0.18937035
179	0x3d0788c4	0.033089414
180	0x3dbe93db	0.09305545
181	0xbea0e42a	-0.31424075
182	0x3e0d97da	0.13827458
183	0x3df43bb6	0.119254515
184	0x3e4d47d4	0.20046932
185	0xbd66fda4	-0.056394234
186	0x3e35ae87	0.17742358
187	0xbbdb4ffa	-0.0066928836
188	0xbe41ef7d	-0.18939014
189	0xbe20dc40	-0.15709019
190	0xbd379c8e	-0.044827037
191	0xbe82ab2c	-0.2552122
192	0x3e61a4a7	0.22035466
193	0x3c035628	0.008016147
194	0xbe04f736	-0.12984928
195	0x3df4814e	0.119387254
196	0xbe0b0f0f	-0.13579963
197	0xbe7165a7	-0.23573934
198	0x3dc7a216	0.09747712
199	0x3e2b00b5	0.16699488
200	0xbe575898	-0.2102989
201	0xbe21a44a	-0.15785328
202	0x3e466ca6	0.19377384
203	0xbe2ac701	-0.16677476
204	0xbe854499	-0.26028898
205	0xbe15c77b	-0.14626877
206	0x3d77cde4	0.060499087
207	0x3e45ee63	0.19329219
208	0xbe0d8475	-0.1382006
209	0xbe57fab7	-0.21091734
210	0x3e6eacee	0.23308155
211	0xbe6de937	-0.23233496
212	0x3e8124ad	0.25223294
213	0x3df2a117	0.11847132
214	0x3d901323	0.070349
215	0x3e0a3323	0.1349607
216	0x3d6740c1	0.05645824
217	0xbe17a5c8	-0.14809334
218	0xbd9fdf1f	-0.07806229
219	0x3e8fdf61	0.28100112
220	0x3e94f08f	0.29089782
221	0xbe3f6a73	-0.18692951
222	0xbddb7315	-0.107153095
223	0x3e9270f4	0.286018
224	0xbda09c86	-0.078423545
225	0xbe407925	-0.18796213
226	0xbc271d42	-0.010199847
227	0xbe792cad	-0.24333449
228	0xbe982bc1	-0.29720882
229	0xbda63b24	-0.08116749
230	0x3e4346a4	0.19069916
231	0x3c0ff03b	0.008785303
232	0xbe7d99f0	-0.24765754
233	0x3e9f1d81	0.31077197
234	0xbe74250a	-0.23842254
235	0xbe95e400	-0.29275513
236	0xbe426678	-0.18984401
237	0xbe8ca887	-0.27472326
238	0xbe957f96	-0.29198903
239	0xbe8785bd	-0.26469222
240	0xbdf93c9e	-0.12169765
241	0xbd6a5ef0	-0.057219446
242	0x3d9b7679	0.07590956
243	0x3e6ba348	0.23011506
244	0x3daa790a	0.083238676
245	0xbe4f345a	-0.20234814
246	0x3d887b23	0.066641115
247	0x3c93ded9	0.018050598
248	0xbd8af23c	-0.06784484
249	0x3dc0b294	0.09409061
250	0x3e1fd0ef	0.15607046
251	0x3e99eb2a	0.30062228
252	0xbd9c0d64	-0.076197416
253	0x3e5cfe13	0.21581297
254	0x3e136070	0.14392257
255	0x3e2487c8	0.16067421

node_grus.sensor_node.weight_ih_l0 f4 [48, 32]
0	0xbe76b3fa	-0.24092093
1	0x3d969708	0.07353026
2	0xbde45df0	-0.1115073
3	0xbd82ffe0	-0.063964605
4	0x3e08d528	0.13362563
5	0xbe23836c	-0.15968102
6	0xbd86c1e6	-0.06579952
7	0xbe700326	-0.23438701
8	0xbc314b1a	-0.010821128
9	0xbbcf377a	-0.006323752
10	0xbe6cb74a	-0.23116794
11	0x3e2ae72e	0.1668975
12	0x3e024c70	0.12724471
13	0xbe410bc0	-0.18852139
14	0xbe1437f3	-0.14474468
15	0xbdb8807b	-0.09008881
16	0xbe7a8fb0	-0.24468875
17	0xbc019840	-0.007909834
18	0xbd5c807d	-0.053833473
19	0xbe16c961	-0.14725257
20	0xbe6c40e5	-0.2307163
21	0xbe64e27f	-0.22352026
22	0xbdecaeb4	-0.115567595
23	0x3e80555d	0.25065127
24	0xbe025ccc	-0.12730712
25	0xbde71a20	-0.1128428
26	0x3e8303af	0.25588748
27	0x3e41e1e1	0.18933822
28	0xbdc3fa64	-0.095692426
29	0x3e290ff8	0.16509998
30	0x3e5ebf6a	0.21752706
31	0xbe77b8e8	-0.2419163
32	0xbd690def	-0.056898054
33	0x3dac3b5b	0.08409759
34	0x3e6c78a0	0.2309289
35	0xbd30d574	-0.043172315
36	0x3e1c128b	0.15241449
37	0xbde94142	-0.113894
38	0x3dbde4be	0.09272145
39	0x3e1f9753	0.1558507
40	0x3df427b4	0.11921635
41	0xbc17c4f1	-0.009263263
42	0xbe543a30	-0.20725322
43	0x3e11f980	0.14255333
44	0xbdc7a763	-0.09748723
45	0xbd492c1a	-0.049114324
46	0xbdee6cec	-0.11641869
47	0x3e1bf291	0.1522925
48	0xbe55631d	-0.2083859
49	0xbe4e9001	-0.2017212
50	0x3e46338c	0.19355601
51	0xbe031d49	-0.1280414
52	0xbe2cdd60	-0.16881323
53	0xbdfa35c9	-0.1221729
54	0xbe339c07	-0.17539988
55	0x3ca8f150	0.02062288
56	0xbd5386b4	-0.051642135
57	0x3e29a750	0.16567731
58	0xbe20a688	-0.15688527
59	0x3e4479e8	0.19187129
60	0x3e3bcc7b	0.18339722
61	0x3e49442c	0.19654912
62	0xbe2f1462	-0.17097619
63	0xbc9b255b	-0.01893871
64	0xbd73f476	-0.059559308
65	0xbe3a044f	-0.18165706
66	0x3e594cd9	0.21220721
67	0xbde83e88	-0.11340052
68	0xbcaf6d9a	-0.021414567
69	0xbddea4ba	-0.10871263
70	0xbe7ea37e	-0.24867055
71	0xbe580aba	-0.21097842
72	0xbe122d74	-0.14275151
73	0x3defe340	0.117132664
74	0xbe33ce65	-0.17559202
75	0x3c412102	0.011787655
76	0x3dbfdc0a	0.09368141
77	0x3c5c6da4	0.013453875
78	0xbddb0cd2	-0.10695805
79	0xbd980cba	-0.074243024
80	0x3da602f8	0.08106035
81	0xbd4af530	-0.049550235
82	0xbb56a62d	-0.0032752857
83	0x3e7d26c4	0.24721819
84	0x3e325195	0.17413934
85	0xbe5b2002	-0.21398929
86	0xbe5f3d03	-0.21800618
87	0xbd33a318	-0.04385671
88	0xbe3b0198	-0.18262327
89	0x3db3c4f9	0.08777804
90	0xbdc331bc	-0.095309705
91	0x3deadd0e	0.11467944
92	0x3d81bcb5	0.06334821
93	0x3e669808	0.22518933
94	0x3e36b82e	0.17843696
95	0xbbc1da9b	-0.0059159524
96	0x3e5e67ed	0.21719332
97	0xbd507346	-0.050891183
98	0xbe6463cb	-0.22303693
99	0xbe75015b	-0.23926298
100	0xbe3abd12	-0.18236187
101	0xbddf0889	-0.108903
102	0x3b95eeec	0.004575601
103	0xbe3f73cd	-0.18696518
104	0xbe0bfaba	-0.13669863
105	0x3e744fbd	0.23858543
106	0xbd1f4794	-0.03888662
107	0xbd7d746c	-0.061878607
108	0xbe57a953	-0.21060686
109	0x3e380f19	0.1797451
110	0x3e2a7be5	0.16648825
111	0x3e27e718	0.16396749
112	0x3e21a4d0	0.15785527
113	0xbe479b68	-0.19492877
114	0xbe4e77ac	-0.20162839
115	0xbe7b5841	-0.24545385
116	0xbdfbcc02	-0.12294771
117	0xbe7607b1	-0.24026372
118	0xbdd5800b	-0.10424813
119	0x3e10e5fc	0.14150232
120	0x3e2cabd4	0.16862422
121	0x3dae4a72	0.08510293
122	0x3dfedfe8	0.124450505
123	0xbe2859db	-0.16440527
124	0x3e63a279	0.22229947
125	0xbe192046	-0.14953718
126	0xbda8dc91	-0.08245195
127	0x3ddc2ac5	0.10750345
128	0xbe0ed972	-0.13950136
129	0x3dca9925	0.09892491
130	0xbdc0ff42	-0.094236866
131	0xbd840a5c	-0.064472884
132	0x3e3998eb	0.1812474
133	0x3e404605	0.1877671
134	0x3d8c3380	0.0684576
135	0x3c9d5d24	0.019209452
136	0xbd8b6777	-0.06806844
137	0x3e45f975	0.19333442
138	0x3e552c20	0.20817614
139	0x3e685804	0.22689825
140	0xbdac695f	-0.084185354
141	0xbb79fe0e	-0.0038145813
142	0x3e2a4ee8	0.16631663
143	0x3e6e2a11	0.23258235
144	0xbe3fcdff	-0.18730925
145	0x3e0b7dfa	0.13622275
146	0xbdcfaa20	-0.10139871
147	0xbdcbf6fc	-0.09959218
148	0x3e6830df	0.22674893
149	0xbe7484f8	-0.23878849
150	0x3e688261	0.22705986
151	0x3d454220	0.048158765
152	0x3daa33f4	0.083106905
153	0x3ddc55c6	0.107585475
154	0x3e2a696b	0.16641776
155	0x3e1de552	0.1541951
156	0xbd685f88	-0.05673173
157	0x3c9f4a25	0.019444535
158	0x3e69c4ac	0.2282893
159	0xbe7164a8	-0.23573554
160	0xbc6e6b02	-0.01455188
161	0x3dee9555	0.116495766
162	0xbb755539	-0.003743483
163	0xbe25bdb8	-0.16185653
164	0xbd2e9e1c	-0.042631254
165	0x3e5625ff	0.20912932
166	0x3e66603c	0.22497648
167	0x3d8e490b	0.069475256
168	0xbe75f951	-0.24020888
169	0xbddc462e	-0.10755573
170	0xbe7a92ce	-0.24470064
171	0xbd4e77a7	-0.050407078
172	0x3e434fcc	0.19073409
173	0x3ce2847e	0.027651068
174	0xbc9b21a2	-0.018936936
175	0xbe219150	-0.15778089
176	0xbe44da3b	-0.19223873
177	0xbe3ddca6	-0.18541202
178	0xbdcbbd72	-0.09948243
179	0x3c0747f0	0.008256897
180	0x3bf740e1	0.007545576
181	0xbe33a3bd	-0.1754293
182	0x3ca72376	0.020402651
183	0x3dc56d9b	0.09640046
184	0xbd945944	-0.072435886
185	0x3e7232f8	0.23652256
186	0xbe00fe2c	-0.12596959
187	0xbe72b6b9	-0.23702516
188	0xbe7e1717	-0.24813496
189	0x3daaf538	0.08347553
190	0x3e4cd87f	0.20004462
191	0xbe1b5d94	-0.15172416
192	0x3e03463a	0.12819758
193	0xbe10b12e	-0.14130089
194	0x3e3dc2b7	0.18531309
195	0x3e0e2656	0.13881811
196	0x3e57c8b1	0.21072651
197	0x3c6cfa94	0.014464039
198	0xbe6a20ad	-0.22864027
199	0x3ddaae6a	0.10677798
200	0x3dc1c327	0.094610505
201	0x3e179b54	0.14805347
202	0x3e580261	0.21094657
203	0xbb825214	-0.0039770696
204	0x3e743566	0.23848495
205	0x3e757e89	0.2397405
206	0x3df11239	0.11771054
207	0xbb846ea9	-0.004041512
208	0xbd67993e	-0.056542628
209	0x3d5afe44	0.053465143
210	0x3dae43bb	0.08509012
211	0xbe3b1c25	-0.18272455
212	0x3e2642d9	0.16236438
213	0x3e0b437c	0.13599962
214	0xbe748f72	-0.23882845
215	0xbe6e2550	-0.23256421
216	0x3e00a6c2	0.12563613
217	0x3e1277ba	0.14303485
218	0xbd0d22a6	-0.03445687
219	0x3d45bac5	0.04827382
220	0x3e5a757a	0.21333876
221	0xbd9909f0	-0.074725986
222	0xbb35177d	-0.0027632408
223	0xbe3a8955	-0.1821645
224	0xbdf7bd5c	-0.12096664
225	0xbde0103d	-0.10940597
226	0x3d390a6e	0.045175962
227	0x3e76d067	0.24102937
228	0xbd52ff47	-0.051512983
229	0x3e32ff50	0.17480206
230	0xbe3b18eb	-0.18271224
231	0xbe034425	-0.12818964
232	0xbdfd2604	-0.123607665
233	0x3d55634c	0.05209665
234	0x3e7aaebd	0.2448072
235	0x3e5ee9f8	0.2176894
236	0xbcc5b95f	-0.024136243
237	0x3e09ca6d	0.13456126
238	0x3dd3bc71	0.10338677
239	0xbdd5b65b	-0.10435172
240	0x3e4ee034	0.20202714
241	0x3d63d227	0.05562034
242	0xbe6f34c1	-0.23359968
243	0xbe033783	-0.12814145
244	0x3e233fb7	0.15942274
245	0x3e7091f5	0.23493178
246	0x3d8f3985	0.06993393
247	0x3c0f4d80	0.008746505
248	0xbe626905	-0.22110374
249	0xbe391e83	-0.18078046
250	0xbe0e2b44	-0.13883692
251	0xbe3320d7	-0.17492996
252	0xbda82539	-0.08210225
253	0x3db55697	0.08854406
254	0x3e023699	0.1271614
255	0xbe1da23d	-0.1539392

node_grus.sensor_node.weight_hh_l0 f4 [48, 16]
0	0x3e73e537	0.23817907
1	0x3e5e5e22	0.21715596
2	0x3e3400b6	0.17578396
3	0x3e52d0c6	0.20587453
4	0x3dfce6ab	0.12348684
5	0xbe0cf20c	-0.13764209
6	0x3e2fd94d	0.17172737
7	0x3defec96	0.11715047
8	0xbe4c7059	-0.19964732
9	0xbe35c4ca	-0.1775085
10	0x3dec011b	0.11523648
11	0xbe19998c	-0.1499998
12	0xbcaf8a59	-0.021428274
13	0x3e4aa693	0.19790106
14	0x3d4e0df3	0.05030627
15	0xbe610a6b	-0.2197663
16	0x3e03e775	0.12881263
17	0xbe58eb5c	-0.21183532
18	0x3d90deac	0.07073721
19	0x3e2ca7e7	0.16860925
20	0x3e2801a8	0.16406882
21	0x3e75eb29	0.24015488
22	0xbe568192	-0.20947865
23	0xbcc6eabb	-0.02428185
24	0xbdfc9b01	-0.12334252
25	0xbacecb0e	-0.0015777068
26	0xbdebfa11	-0.11522306
27	0x3de022ad	0.10944114
28	0x3e3ff43e	0.18745515
29	0xbe515e08	-0.20446026
30	0xbdc356ed	-0.09538064
31	0xbe589977	-0.21152292
32	0x3e10d717	0.1414455
33	0x3e6d4d01	0.23173906
34	0xbde60418	-0.112312496
35	0xbe2045b6	-0.15651593
36	0x3dc1ef50	0.09469473
37	0xbe559d44	-0.20860773
38	0xbba7778a	-0.0051106857
39	0xbd79cbf4	-0.06098552
40	0x3e5bb0bf	0.21454142
41	0x3d9fbe47	0.077999644
42	0xbdecfecb	-0.115720354
43	0xbdfc522f	-0.12320363
44	0x3e0447d9	0.12918033
45	0x3df410d4	0.11917272
46	0x3d206d7e	0.03916692
47	0x3e561c09	0.20909132
48	0xbc80a5e5	-0.015704105
49	0xbe53c38d	-0.20680065
50	0xbe7e6e8f	-0.24846862
51	0x3d22cbcb	0.039745133
52	0x3e3276a3	0.17428069
53	0x3de7fddd	0.113277175
54	0xbd8a59fc	-0.067554444
55	0xbdddb06d	-0.10824666
56	0xbdb155ae	-0.0865892
57	0x3dfd2a56	0.123615906
58	0xbe6748e3	-0.22586398
59	0xbe2e1b3e	-0.1700258
60	0xbc3cc69b	-0.011521961
61	0x3e51d061	0.20489646
62	0xbcf73162	-0.030174915
63	0xbd810ce4	-0.06301287
64	0xbd0f69ad	-0.03501289
65	0x3d171512	0.03688533
66	0x3be82d03	0.007085444
67	0x3e27de3a	0.16393366
68	0x3c518e91	0.012790338
69	0x3e47be58	0.19506204
70	0xbe7df9c8	-0.24802315
71	0x3de7c672	0.11317147
72	0x3e699ed1	0.2281449
73	0x3e6243d2	0.22096184
74	0x3df2eb12	0.11861242
75	0xbdaa2b68	-0.0830906
76	0xbe410ec0	-0.18853283
77	0x3e2ba5fd	0.16762538
78	0x3db3927d	0.08768175
79	0x3db14e3a	0.08657499
80	0x3e429452	0.19001892
81	0xbe41030f	-0.18848823
82	0xbdcd9b6f	-0.10039412
83	0xbe3e05ed	-0.18556948
84	0x3c8ba5bf	0.017046807
85	0xbe2315c7	-0.15926276
86	0x3d12819c	0.035768136
87	0x3bbd89f2	0.0057842666
88	0xbd932ff4	-0.07186881
89	0x3e6a584f	0.2288525
90	0x3e4911ea	0.1963574
91	0xbe330dba	-0.17485705
92	0x3e103766	0.14083633
93	0xbe029979	-0.12753858
94	0x3ce341f1	0.027741404
95	0xbdb19e08	-0.0867272
96	0xbe08d25b	-0.13361494
97	0x3cf97296	0.030450147
98	0x3c2bf757	0.010495982
99	0xbe54cbcf	-0.20780872
100	0xbe72fd5c	-0.23729461
101	0x3e3707f5	0.17874129
102	0x3e17745a	0.14790478
103	0xbe715afa	-0.23569861
104	0x3e35554c	0.1770832
105	0xbdb8ead3	-0.09029164
106	0x3ddeb8ff	0.10875129
107	0xbc943018	-0.01808934
108	0xbe4aeff3	-0.19818096
109	0xbc1e0f04	-0.009647135
110	0x3e255682	0.16146281
111	0xbde6024b	-0.11230906
112	0x3d97dcff	0.074151985
113	0x3ccf88b5	0.025333742
114	0x3e5a20c9	0.21301569
115	0x3d0b05ec	0.033941194
116	0x3d957e04	0.07299426
117	0xbe051d87	-0.12999545
118	0x3e79288c	0.24331874
119	0x3dad0926	0.084490106
120	0xbe26b9a7	-0.16281758
121	0xbe69d80c	-0.22836322
122	0xbda79151	-0.08182014
123	0xbe7449ce	-0.23856279
124	0xbe2274a9	-0.15864815
125	0xbe0d3973	-0.13791446
126	0xbd2a4440	-0.041568995
127	0xbdc09904	-0.094041854
128	0x3dadce6b	0.08486637
129	0xbe4036c7	-0.18770896
130	0xbe0f3efe	-0.13988873
131	0xbe0f55dd	-0.13997598
132	0x3cd89c3f	0.026441691
133	0xbccd4b70	-0.025060385
134	0x3d947338	0.07248539
135	0xbe06b55b	-0.13155119
136	0x3d2250fc	0.039628014
137	0x3e44826e	0.1919038
138	0x3dc632e3	0.096776746
139	0xbdda8a0d	-0.10670862
140	0x3cc7d1e5	0.024392078
141	0x3c30904e	0.010776592
142	0xbb6e53bc	-0.0036365828
143	0xbd89ab1d	-0.067220904
144	0xbe328510	-0.17433572
145	0x3e4457a6	0.1917406
146	0x3da1bb26	0.07897024
147	0xbda531dd	-0.08066151
148	0x3e46b5c9	0.19405283
149	0x3d44b7d3	0.04802687
150	0xbda7a0db	-0.081849776
151	0xbdf91d92	-0.12163843
152	0x3d1345c2	0.035955198
153	0xbe6377bc	-0.22213644
154	0x3c2dfb50	0.010619
155	0xbd97f807	-0.07420354
156	0xbe11b29c	-0.1422829
157	0x3d16cf8f	0.036819037
158	0x3e71ebe7	0.23625146
159	0xbe2c7532	-0.16841581
160	0x3cad3a3f	0.021145938
161	0xbd0d5f2d	-0.034514595
162	0x3e0114f5	0.1260565
163	0x3da3c827	0.079971604
164	0x3c89c2f4	0.016816594
165	0xbe7403b6	-0.2382954
166	0x3e4c996e	0.19980404
167	0x3e0b499e	0.13602301
168	0xbe70a408	-0.23500073
169	0x3e213c1d	0.15745588
170	0x3e42e533	0.19032745
171	0x3dbb8ed9	0.091581054
172	0xbe5e2206	-0.21692666
173	0xbe241e1b	-0.1602711
174	0xbd0cf0db	-0.034409385
175	0xbcdc6342	-0.026902799
176	0x3c41158e	0.011784924
177	0x3db5c42d	0.08875308
178	0x3e8274ae	0.25479645
179	0xbe391759	-0.18075313
180	0xbafeb382	-0.001943216
181	0xbdaddb83	-0.08489134
182	0x3dc6edc4	0.09713319
183	0xbdf13a3b	-0.11778685
184	0xbe508ae1	-0.20365478
185	0x3e163e76	0.14672264
186	0xbe1c47f0	-0.15261817
187	0x3e1c4554	0.15260822
188	0x3d095702	0.033530243
189	0xbe27d3e0	-0.16389418
190	0xbe5ce6df	-0.21572445
191	0xbda77a27	-0.081775956
192	0x3daf2ed2	0.08553852
193	0x3ce7e030	0.028305143
194	0x3b4100bb	0.0029449898
195	0x3dd0ba84	0.10191825
196	0x3e78c376	0.24293312
197	0xbe131df5	-0.14366896
198	0x3d698877	0.05701491
199	0x3e31e74d	0.1737339
200	0x3e098870	0.13430953
201	0x3e2d7fb3	0.16943245
202	0x3df97f90	0.12182534
203	0x3d3d9a35	0.04628964
204	0x3e44de6a	0.19225469
205	0xbe0edde0	-0.13951826
206	0xbdde9199	-0.10867614
207	0x3d537bce	0.05163174
208	0xbe0ee8d5	-0.13956006
209	0x3d823cf2	0.06359281
210	0x3d93cab4	0.07216397
211	0x3dae221c	0.085025996
212	0x3e7449b7	0.23856245
213	0xbe460647	-0.19338332
214	0x3dff6dac	0.1247209
215	0xbe792e1c	-0.24333996
216	0xbddcaf60	-0.107756376
217	0xbde25bf3	-0.11052694
218	0xbd95a607	-0.07307058
219	0x3db76643	0.08955052
220	0xbde1fed4	-0.11034933
221	0xbe560719	-0.20901145
222	0xbe787db8	-0.24266708
223	0x3dfaf6cf	0.12254106
224	0xbdca1ee6	-0.09869175
225	0xbd3534f4	-0.044239953
226	0x3e73061e	0.23732802
227	0x3ba8abdf	0.0051474418
228	0x3e567666	0.20943603
229	0xbc17fa3e	-0.009275971
230	0x3e7a12bf	0.24421214
231	0xbe06bf7c	-0.13158983
232	0xbc8f41ae	-0.017487373
233	0xbe7d0baa	-0.2471148
234	0x3decf58f	0.11570274
235	0x3d9fa96b	0.07795986
236	0xbe422df6	-0.18962845
237	0xbe481372	-0.19538668
238	0x3e046441	0.12928869
239	0x3e03be8f	0.12865661
240	0xbe678462	-0.22609094
241	0x3e36f1bf	0.17865656
242	0x3e4e5854	0.20150882
243	0xbdcd51e7	-0.10025387
244	0x3e021645	0.12703808
245	0x3e4b74df	0.19868802
246	0xbe17e036	-0.14831623
247	0xbd121a40	-0.035669565
248	0x3e4491d3	0.19196253
249	0xbbed0f0a	-0.007234459
250	0x3d0a8206	0.033815406
251	0xbd12436a	-0.035708822
252	0xbc91d1ce	-0.017800238
253	0x3c89120a	0.016732235
254	0x3d405bc5	0.04696252
255	0x3d1546d1	0.03644449

node_grus.sensor_node.bias_ih_l0 f4 [48]
0	0xbc2b7711	-0.010465399
1	0xbda184d1	-0.07886661
2	0xbe386c84	-0.18010145
3	0x3df63571	0.12021912
4	0xbdd5e191	-0.10443414
5	0xbc172d15	-0.009227057
6	0xbc372780	-0.011178851
7	0x3e6f221c	0.23352855
8	0x3df1028e	0.117680654
9	0xbe4d33fa	-0.20039359
10	0x3da531b3	0.0806612
11	0x3e351a40	0.17685795
12	0x3e4dca81	0.2009678
13	0xbb21b3ec	-0.0024673892
14	0xbe153687	-0.14571582
15	0x3e67bc7b	0.22630493
16	0xbc393a4e	-0.011305405
17	0x3e316e78	0.17327297
18	0xbe50f17a	-0.20404616
19	0x3e5830a0	0.21112299
20	0xbcd7e131	-0.026352497
21	0x3dc894fd	0.09794042
22	0x3db49a0f	0.08818447
23	0x3e1ca91b	0.15298884
24	0x3d386a74	0.045023397
25	0x3b2e4f7a	0.0026597665
26	0x3de37d8c	0.111079305
27	0x3d5e9f6b	0.05435125
28	0xbd33be03	-0.04388238
29	0xbe6a7b04	-0.22898489
30	0x3dda0ab0	0.1064657
31	0x3e10886f	0.14114545
32	0x3c49c448	0.0123148635
33	0x3ca743da	0.020418096
34	0x3e30ae6f	0.17254041
35	0xbe128bed	-0.1431119
36	0xbe25190b	-0.16122834
37	0xbd082a38	-0.033243388
38	0x3e459341	0.19294454
39	0x3dacb830	0.084335685
40	0xbda2a29b	-0.07941171
41	0xbd956407	-0.07294469
42	0xbe4f01f0	-0.20215583
43	0xbe4fe47d	-0.20302005
44	0xbd070ba1	-0.032970075
45	0xbe69cbce	-0.22831652
46	0x3d52b784	0.051444545
47	0xbd033a4c	-0.032038018

node_grus.sensor_node.bias_hh_l0 f4 [48]
0	0xbe3b163c	-0.182702
1	0x3d53fa58	0.05175242
2	0xbe1b23cc	-0.15150374
3	0xbe3d7009	-0.1849977
4	0x3e20f7ca	0.15719524
5	0x3d9ed773	0.077559374
6	0xbde85b12	-0.11345495
7	0x3e82399f	0.25434586
8	0xbba11c6f	-0.0049167196
9	0xbd9be38c	-0.076117605
10	0xbe71fedc	-0.23632377
11	0xbe15ddda	-0.14635411
12	0xbe221b09	-0.15830626
13	0xbe0f78c3	-0.1401091
14	0xbb70654a	-0.0036681467
15	0x3d2fc18e	0.042909198
16	0x3e4561b2	0.19275549
17	0x3e1c13bc	0.15241903
18	0x3e1eb7a6	0.15499744
19	0xbe80fd7e	-0.251934
20	0x3e410317	0.18848835
21	0xbe61745e	-0.22017047
22	0xbe1d4559	-0.15358485
23	0xbdcc0dd1	-0.09963573
24	0x3de2c05e	0.110718474
25	0x3d9013ad	0.07035003
26	0x3deb2bbb	0.1148295
27	0xbd910358	-0.07080716
28	0x3e37c30c	0.17945498
29	0xbd8e2b21	-0.0694182
30	0xbc8d1678	-0.017222628
31	0x3dd8e4b4	0.10590497
32	0xbe8e1f9b	-0.27758488
33	0xbe1f927d	-0.15583225
34	0x3d8b8d41	0.068140514
35	0xbe33101e	-0.17486617
36	0x3e3ff615	0.18746217
37	0x3de10977	0.109881334
38	0x3da89d8c	0.08233175
39	0x3d87a419	0.06623096
40	0x3d4e311c	0.050339803
41	0xbe63368d	-0.22188778
42	0xbd4310b9	-0.04762337
43	0xbe083a52	-0.13303497
44	0xbe518145	-0.20459469
45	0xbe71bc25	-0.23606928
46	0x3dc98bf7	0.09841149
47	0x3e44df13	0.19225721

node_decoders.pressure.0.weight f4 [8, 16]
0	0xbe725124	-0.23663765
1	0xbd8a15b5	-0.067424215
2	0xbbbeaab1	-0.005818688
3	0x3e771397	0.24128567
4	0xbddd7ea7	-0.10815173
5	0xbdf11bd5	-0.11772887
6	0xbe3b0fc2	-0.1826773
7	0xbe7492cc	-0.23884124
8	0xbdb98007	-0.090576224
9	0x3d0852d1	0.033282105
10	0xbe5a70b4	-0.21332055
11	0xbd0fabe1	-0.035076026
12	0xbe47a442	-0.19496253
13	0x3e7496ce	0.23885652
14	0xbe4c4963	-0.1994987
15	0x3e547d78	0.20750988
16	0xbd24a1a1	-0.040193204
17	0x3e8556c6	0.26042765
18	0x3e2079a5	0.15671404
19	0xbe2ed6af	-0.17074083
20	0x3dd01acc	0.10161361
21	0xbe3f6ea2	-0.18694547
22	0x3c649a0d	0.013952744
23	0x3d10f970	0.035394132
24	0xbc843908	-0.016140476
25	0xbccef815	-0.02526478
26	0xbd869506	-0.06571393
27	0x3e066fb7	0.13128553
28	0xbe4d1945	-0.20029171
29	0xbe56a3c1	-0.20960905
30	0xbda8dfb4	-0.08245793
31	0x3c5cd19a	0.013477707
32	0xbe24ed0f	-0.16106056
33	0xbdeeb997	-0.11656492
34	0xbe42a10d	-0.19006748
35	0xbc2ac789	-0.010423549
36	0xbde9e1a0	-0.11419988
37	0xbc52abcd	-0.012858343
38	0x3d2673f2	0.040637918
39	0x3ce7c14b	0.028290411
40	0x3e5aeff7	0.21380602
41	0x3cb7996d	0.022412026
42	0xbe2fabba	-0.17155352
43	0x3e143864	0.14474636
44	0xbdbb2cda	-0.09139414
45	0xbe5d0da7	-0.21587239
46	0xbdcde138	-0.10052723
47	0x3dadb70f	0.08482181
48	0xbd31c3f9	-0.043399785
49	0xbd9fe71b	-0.07807752
50	0x397be9a8	0.00024024269
51	0x3e560d44	0.20903498
52	0xbe0097da	-0.12557927
53	0xbe48a5f2	-0.19594553
54	0xbd13462a	-0.035955586
55	0x3e13e91e	0.14444396
56	0xbe88250b	-0.26590762
57	0x3d0048ce	0.031319432
58	0xbe255a4b	-0.16147725
59	0x3e366894	0.17813331
60	0x3d52951a	0.051411726
61	0x3e2102ce	0.15723726
62	0x3e92f93b	0.28705773
63	0xbe4b26f4	-0.19839078
64	0xbe593788	-0.2121259
65	0x3d8fe34f	0.070257775
66	0xbe1a7b4c	-0.15086097
67	0xbd5186b1	-0.051153842
68	0xbd420463	-0.047367465
69	0xbe319f1a	-0.17345849
70	0x3e65a3fe	0.2242584
71	0x3e3e0b26	0.1855894
72	0xbe020a01	-0.12699129
73	0xbe35f76b	-0.17770164
74	0xbe5a704a	-0.21331897
75	0xbd29a790	-0.041419566
76	0x3c5fa253	0.013649541
77	0xbd40b714	-0.047049597
78	0x3e809fed	0.25122014
79	0x3daf818d	0.08569632
80	0xbe3c10bf	-0.18365763
81	0x3e509b5e	0.20371768
82	0x3e84e00e	0.2595219
83	0xba355cb7	-0.00069184176
84	0x3e4660f2	0.19372919
85	0xbdaa3c9f	-0.08312344
86	0xbe45de83	-0.19323163
87	0xbde1bd0b	-0.11022385
88	0x3d506b7f	0.050883766
89	0x393d0100	0.00018024817
90	0xbdd79180	-0.10525799
91	0xbd8ebe48	-0.06969887
92	0x3e3608ac	0.17776746
93	0x3d6db3d0	0.05803281
94	0x3e52598b	0.2054197
95	0x3e57a9ed	0.21060915
96	0xbe7573ab	-0.23969905
97	0x3e357b36	0.17722782
98	0x3e33e723	0.1756864
99	0xbdc0866c	-0.09400639
100	0xbe8d14db	-0.27554974
101	0x3dd39d2e	0.10332714
102	0xbd800335	-0.06250612
103	0x3dbfe331	0.09369505
104	0xbcf269ae	-0.029591408
105	0xbc9e58cf	-0.019329457
106	0x3e137239	0.14399041
107	0x3df9bac0	0.12193823
108	0x3c9bcf17	0.019019647
109	0xbe3dc6a2	-0.18532804
110	0x3d800c54	0.062523514
111	0x3d352b9a	0.044231035
112	0x3e17cc82	0.14824107
113	0x3e5d4a6b	0.2161042
114	0xbdaf3e10	-0.08556759
115	0xbe1d96fd	-0.15389629
116	0xbe17245e	-0.14759967
117	0xbe5db150	-0.2164967
118	0xbe5654a8	-0.20930731
119	0xbbe9364e	-0.0071170693
120	0xbe30bad6	-0.17258772
121	0xbe5f6788	-0.21816838
122	0x3e3cae69	0.18425907
123	0xbc3457b2	-0.011007236
124	0xbdacae84	-0.08431724
125	0x3e25190f	0.1612284
126	0xbe56a724	-0.20962197
127	0xbe7a6bef	-0.24455236

node_decoders.pressure.0.bias f4 [8]
0	0x3e16c447	0.14723311
1	0x3e6c0816	0.2304996
2	0x3d445a2d	0.04793756
3	0x3e5d12bf	0.21589182
4	0xbd8ecf8c	-0.0697318
5	0xbe0cd6a4	-0.13753754
6	0x3e025cee	0.12730762
7	0x3c5e2df7	0.013560764

node_decoders.pressure.3.weight f4 [1, 8]
0	0x3e57596b	0.21030204
1	0xba9dfc4d	-0.0012053341
2	0x3da44e95	0.08022801
3	0x3dcd1b8b	0.10015019
4	0x3dd7637e	0.105170235
5	0xbe8c08e6	-0.2735054
6	0x3e2b3ef8	0.1672324
7	0xbe8ba9ba	-0.2727793

node_decoders.mass_flow.0.weight f4 [8, 16]
0	0xbdbd8e54	-0.092556626
1	0x3d15892d	0.036507774
2	0x3e6b5f12	0.22985485
3	0xbe2e881f	-0.17044114
4	0x3dbae3c9	0.09125478
5	0x3c7196a8	0.014745392
6	0xbdaf8f2a	-0.08572228
7	0xbd6a6752	-0.05722744
8	0x3e4d51ce	0.20050737
9	0x3d0ff310	0.03514391
10	0x3de9d863	0.114182256
11	0x3e0e59ef	0.13901494
12	0xbe08da2a	-0.13364473
13	0x3d0e6ed6	0.03477367
14	0xbdf22772	-0.1182393
15	0x3cae8a6c	0.021306239
16	0xbe1811e9	-0.14850582
17	0xbd66696f	-0.056252893
18	0xbe75f1d0	-0.24018025
19	0xbd650827	-0.055915978
20	0xbccddaee	-0.025128808
21	0x3e469011	0.19390894
22	0xbe18e88e	-0.14932463
23	0xbd2f9a2a	-0.04287163
24	0x3e696e4c	0.22795981
25	0x3c4a0319	0.01232984
26	0xbb9516f4	-0.0045498554
27	0x3e24a69a	0.16079178
28	0xbe852bc6	-0.2600996
29	0x3e2ffb8f	0.17185806
30	0xbe26ed00	-0.16301346
31	0xbe1f6c74	-0.15568715
32	0xbd7c9841	-0.06166864
33	0xbd0c515f	-0.03425729
34	0xbe000224	-0.12500817
35	0xbdf5cb82	-0.12001707
36	0xbe5862dd	-0.21131463
37	0xbdf60fb9	-0.120147176
38	0xbe60e37e	-0.21961781
39	0x3e3ade8f	0.18248962
40	0xbe0069a1	-0.12540294
41	0xbd5c05be	-0.053716414
42	0xbe3ebab3	-0.18625908
43	0xbe3c3455	-0.18379338
44	0x3e81acbe	0.25327104
45	0xbe6490c2	-0.22320846
46	0xbd17f193	-0.037095618
47	0xbe116a90	-0.14200807
48	0x3dbc1c5f	0.09185099
49	0x3e3dd520	0.18538332
50	0x3e01f043	0.12689309
51	0x3e2ecd63	0.17070536
52	0x3d7c016c	0.061524794
53	0xbdb804ee	-0.08985315
54	0x3db91952	0.090380326
55	0x3de67643	0.112530254
56	0x3d4a820e	0.049440436
57	0xbe209c8f	-0.15684722
58	0x3e28feb1	0.16503407
59	0xbdcca61b	-0.099926196
60	0x3e2d99a4	0.1695314
61	0x3dfafa94	0.12254825
62	0x3d82d79a	0.06388779
63	0x3e537274	0.20649129
64	0xbd3853c2	-0.045001753
65	0xbe540204	-0.20703894
66	0x3e1631ee	0.14667484
67	0x3ce87e51	0.028380545
68	0x3d2aec57	0.041729297
69	0xbdbce7b5	-0.09223882
70	0xbd4b066e	-0.04956668
71	0x3d3f5f98	0.046722025
72	0xbd81d5d5	-0.06339613
73	0xbe1e8966	-0.15482101
74	0x3c326b33	0.010889816
75	0xbda69eff	-0.08135795
76	0xbe4d0624	-0.20021874
77	0xbe7a0240	-0.24414921
78	0x3d824763	0.06361272
79	0x3e0b1c8f	0.13585113
80	0xbcccbbdc	-0.024991922
81	0x3d68f357	0.056872692
82	0xbe4578f5	-0.19284423
83	0x3dc50229	0.09619553
84	0x3dbfa348	0.09357315
85	0x3e25a7c5	0.1617728
86	0x3bf69142	0.0075246403
87	0xbdf6f66a	-0.120587185
88	0x3e604c6a	0.2190415
89	0x3e35055d	0.17677827
90	0xbe814494	-0.25247633
91	0x3bb371b4	0.005476201
92	0x3dd88d31	0.10573805
93	0xbd0c511f	-0.03425705
94	0x3ddd12ac	0.10794577
95	0xbda631f4	-0.081149966
96	0xbd3f3105	-0.046677608
97	0x3e76f164	0.2411552
98	0x3e113dcc	0.1418373
99	0x3e62447b	0.22096436
100	0x3d96889a	0.073502734
101	0xbcfea6ea	-0.03108545
102	0x3df8bbbb	0.12145182
103	0x3e4c4794	0.1994918
104	0xbe0b24f7	-0.1358832
105	0xbd6452a7	-0.055742886
106	0xbde392e8	-0.111120045
107	0xbb3bfc1b	-0.0028684202
108	0x3d41c56d	0.04730742
109	0xbe4ec8ec	-0.20193833
110	0xbcf1969c	-0.029490761
111	0x3d635a78	0.0555062
112	0x3e067c24	0.13133293
113	0x3e554656	0.20827612
114	0x3e7eb5cc	0.24874038
115	0xbd70d1e5	-0.05879392
116	0xbb0c6a51	-0.0021425674
117	0x3c542a0a	0.012949476
118	0x3e7c022f	0.24610208
119	0xbe1131b2	-0.14179114
120	0x3e4e9485	0.20173843
121	0x3e41e5ba	0.1893529
122	0x3d92b54c	0.07163486
123	0xbe0fcf3c	-0.14043897
124	0x3d9da970	0.07698333
125	0xbd12d6f7	-0.035849538
126	0x3ca185e8	0.019717172
127	0x3d217bfe	0.03942489

node_decoders.mass_flow.0.bias f4 [8]
0	0xbe04908f	-0.1294577
1	0xbe2d58fe	-0.16928479
2	0x3e0739fa	0.1320571
3	0x3ddf44df	0.10901808
4	0xbdb62515	-0.088937916
5	0x3dc4efca	0.09616049
6	0xbe580bbe	-0.2109823
7	0xbe0c39be	-0.13693902

node_decoders.mass_flow.3.weight f4 [1, 8]
0	0xbe5fbfd3	-0.21850519
1	0x3db27777	0.08714192
2	0x3c2c622a	0.010521451
3	0xbea174d5	-0.31534448
4	0xbe9d0b81	-0.3067284
5	0x3ea4e97c	0.32209384
6	0xbea72828	-0.32647824
7	0xbe8ac279	-0.27101496

node_decoders.temperature.0.weight f4 [8, 16]
0	0xbd6d4b66	-0.057933234
1	0x3e45d2a4	0.19318634
2	0xbd98a1f4	-0.07452765
3	0xbe19fc00	-0.15037537
4	0x3d8d48a1	0.068986185
5	0x3ce15f12	0.027511153
6	0x3d5c98f4	0.053856805
7	0x3befe62e	0.0073211407
8	0xbe29df5b	-0.1658911
9	0x3d9d9326	0.07694082
10	0x3d845a7c	0.06462571
11	0xbd82910a	-0.0637532
12	0x3c8cc38e	0.017183091
13	0xbdc25add	-0.09489987
14	0xbe803f3b	-0.2504824
15	0x3bef43d6	0.007301788
16	0x3d72c4e1	0.05926979
17	0xbdbd88f2	-0.09254636
18	0x3dbdb636	0.092632696
19	0xbb9d77ae	-0.0048055267
20	0x3e0876d1	0.13326575
21	0xbdf2aeca	-0.118497446
22	0xbe4f4b49	-0.20243563
23	0x3c53ccd3	0.012927252
24	0xbdf339da	-0.11876269
25	0x3c6512ec	0.013981562
26	0xbe3aed95	-0.18254693
27	0xbdd9d8ba	-0.106370404
28	0xbdfb4857	-0.12269657
29	0x3e2ac968	0.16678393
30	0x3ddfd313	0.10928931
31	0x3cd56a97	0.026051803
32	0xbe788b73	-0.24271946
33	0x3ad9391c	0.0016572806
34	0xbdd20f2a	-0.102567986
35	0x3db881ac	0.09009108
36	0x3dc58a41	0.096455105
37	0x3dcd716c	0.10031399
38	0xbd9432e9	-0.07236273
39	0x3dbc00cc	0.091798395
40	0xbe419d7a	-0.18907729
41	0x3de6fe26	0.11278944
42	0xbe2a6c22	-0.16642812
43	0xbd0efa04	-0.034906402
44	0xbda2b352	-0.07944359
45	0xbe35fa40	-0.17771244
46	0x3cb018e7	0.02149625
47	0xbe0fa9a9	-0.14029564
48	0x3de2297c	0.11043069
49	0xbe15aa89	-0.14615835
50	0x3ccabea2	0.024749104
51	0x3e34e8a6	0.17666873
52	0x3e30e899	0.17276229
53	0xbd98a680	-0.07453632
54	0x3c86bc00	0.016447067
55	0x3e4523ae	0.19251892
56	0x3e1f641b	0.15565531
57	0x3e0497b8	0.12948501
58	0x3da8adbf	0.082362644
59	0xbd9a16d4	-0.07523885
60	0x3deb8a67	0.115010075
61	0xbd86637d	-0.06561945
62	0xbdcbdf18	-0.09954661
63	0x3de73d76	0.112910196
64	0xbd30c7a9	-0.04315916
65	0x3d415298	0.04719791
66	0xbe4cf0ce	-0.20013735
67	0xbe4919dc	-0.19638771
68	0xbe58ee70	-0.21184707
69	0x3dbbcdad	0.09170089
70	0xbe910265	-0.2832214
71	0x3da222db	0.079168044
72	0xbd46d981	-0.04854727
73	0x3e069f65	0.13146742
74	0xbe458b9c	-0.19291538
75	0x3e13ab60	0.14420843
76	0xbe8ec4f4	-0.27884638
77	0xbd2121f6	-0.03933903
78	0x3ca59b7d	0.020215744
79	0x3e7d225c	0.24720138
80	0xbdbe5050	-0.09292662
81	0xbdc27a36	-0.09495966
82	0xbce3613a	-0.027756322
83	0xbd4e7b77	-0.050410714
84	0xbd3ccfbb	-0.046096545
85	0x3e125562	0.14290383
86	0xbd8eb1e7	-0.06967526
87	0xbe2b6885	-0.1673909
88	0x3e10101a	0.14068642
89	0x3e3eee47	0.18645583
90	0xbe080744	-0.13284022
91	0xbe0b76c2	-0.13619521
92	0xbdc558f8	-0.0963611
93	0xbe514d29	-0.2043959
94	0x3d118599	0.0355278
95	0x3e3a7fd3	0.18212824
96	0xbd05f912	-0.032708235
97	0xbe3ff0d5	-0.18744214
98	0xbcbdcf60	-0.023170173
99	0xbd82e822	-0.06391932
100	0x3de82594	0.113352925
101	0x3e18f4f8	0.14937198
102	0x3df06c0c	0.11739358
103	0x3e4b3214	0.19843322
104	0xbd04f580	-0.03246069
105	0xbe304881	-0.17215158
106	0x3d39e63a	0.045385577
107	0xbde1f8db	-0.110337935
108	0xbdae6ad7	-0.08516472
109	0x3de68863	0.112564825
110	0x3dae96ad	0.08524833
111	0x3d94bcff	0.07262611
112	0xbd6f760a	-0.05846218
113	0x3e879406	0.2648012
114	0x3e1a37fc	0.15060419
115	0xbddf9dd2	-0.10918774
116	0x3dfae3bf	0.1225047
117	0xbc8760df	-0.016525684
118	0xbdce2239	-0.10065121
119	0x3e3216ce	0.17391512
120	0x3e5d007e	0.21582219
121	0x3cdad860	0.026714504
122	0xbe4d7086	-0.20062456
123	0x3d3097c2	0.043113478
124	0x3dbcad16	0.09212701
125	0xbe2d1fd6	-0.16906676
126	0x3e08411b	0.13306086
127	0xbdd83d7b	-0.105586015

node_decoders.temperature.0.bias f4 [8]
0	0x3e237022	0.15960744
1	0xbdee0b2f	-0.11623227
2	0x3e1dc648	0.1540767
3	0xbda447d7	-0.08021515
4	0x3cb3d415	0.021951715
5	0x3c5ba05e	0.013404934
6	0xbbdff51c	-0.0068346392
7	0x3d2f99ba	0.042871214

node_decoders.temperature.3.weight f4 [1, 8]
0	0xbdc8e72e	-0.09809719
1	0xbde59465	-0.11209945
2	0x3eaea5a9	0.34110764
3	0x3d9b39d9	0.07579393
4	0x3e73f75c	0.23824829
5	0xbe6fd85f	-0.23422383
6	0xbd81240b	-0.06305703
7	0xbe41bc38	-0.18919456
